…
  from ._conv import register_converters as _register_converters
Using TensorFlow backend.
/usr/local/lib/python3.5/dist-packages/keras/activations.py:211: UserWarning: Do not pass a layer instance (such as LeakyReLU) as the activation argument of another layer. Instead, advanced activation layers should be used just like any other layer in a model.
  identifier=identifier.__class__.__name__))
_________________________________________________________________
Layer (type)                 Output Shape              Param #   
=================================================================
dense_2 (Dense)              (None, 160000)            16160000  
_________________________________________________________________
reshape_2 (Reshape)          (None, 1250, 128)         0         
_________________________________________________________________
up_sampling1d_1 (UpSampling1 (None, 2500, 128)         0         
_________________________________________________________________
conv1d_5 (Conv1D)            (None, 2500, 128)         49280     
_________________________________________________________________
batch_normalization_4 (Batch (None, 2500, 128)         512       
_________________________________________________________________
leaky_re_lu_6 (LeakyReLU)    (None, 2500, 128)         0         
_________________________________________________________________
up_sampling1d_2 (UpSampling1 (None, 5000, 128)         0         
_________________________________________________________________
conv1d_6 (Conv1D)            (None, 5000, 64)          24640     
_________________________________________________________________
batch_normalization_5 (Batch (None, 5000, 64)          256       
_________________________________________________________________
leaky_re_lu_7 (LeakyReLU)    (None, 5000, 64)          0         
_________________________________________________________________
conv1d_7 (Conv1D)            (None, 5000, 7)           1351      
_________________________________________________________________
leaky_re_lu_8 (LeakyReLU)    (None, 5000, 7)           0         
=================================================================
Total params: 16,236,039
Trainable params: 16,235,655
Non-trainable params: 384
_________________________________________________________________
(5000, 7)
(5000, 7)
(5000, 7)
(5000, 7)
(5000, 7)
(5000, 7)
(5000, 7)
(5000, 7)
(5000, 7)
(5000, 7)
(5000, 7)
(5000, 7)
(5000, 7)
(5000, 7)
(5000, 7)
(5000, 7)
(5000, 7)
(5000, 7)
…
